Model/model_skipgram_neg.pth (torch, 231962 bytes, 2 tensors)

embedding_v.weight f4 [14395, 2]
0	0xbfd52eaa	-1.6654866
1	0xbfb9b884	-1.4509435
2	0xbfa03c0d	-1.2518326
3	0x3f5b0ee3	0.8556959
4	0xbf943a65	-1.1580321
5	0xbf32409c	-0.69629836
6	0x40119109	2.2744772
7	0x3eed0baa	0.4629796
8	0x3f072600	0.5279236
9	0x3f0cd36c	0.55010104
10	0x3f229be0	0.63519096
11	0x3ecb879e	0.39751905
12	0x3f3bde9e	0.7338656
13	0x3f8439f7	1.033019
14	0x3ea961cf	0.33082435
15	0xbf9a472f	-1.2052974
16	0xbf14647e	-0.5796584
17	0xbe896426	-0.2683422
18	0xbed4b03c	-0.41540706
19	0x3f0913b7	0.5354571
20	0x3eae847a	0.34085447
21	0x3edd121c	0.4317788
22	0x3f496a51	0.7867785
23	0x3f7c7c6b	0.98627347
24	0x3ecce9f6	0.40022248
25	0xbf265764	-0.649771
26	0xbfb14fb7	-1.3852452
27	0xbf874381	-1.0567476
28	0x3fc58be4	1.5433316
29	0x400d3e1f	2.2069166
30	0x3fb7d0cf	1.4360598
31	0xbf49fb75	-0.7889932
32	0xbf5e904d	-0.86938936
33	0xbfa2b2a0	-1.2710762
34	0xbf17fd0d	-0.593705
35	0x3f16d5fe	0.58920276
36	0x3f352cc1	0.70771414
37	0x3d74f8f6	0.05980774
38	0xbfd497f8	-1.6608877
39	0xbf1de4e2	-0.6167737
40	0x3f27a69b	0.65488595
41	0xbeb11ab5	-0.34590688
42	0xbdce4b95	-0.1007301
43	0xbef9d065	-0.48791805
44	0xbd66b740	-0.056327105
45	0x3d52ef09	0.051497493
46	0xc00323b6	-2.0490546
47	0x3e96ba9a	0.2943924
48	0xbfbf2de0	-1.4935875
49	0xbe7e8be3	-0.2485805
50	0xbf3bb2d8	-0.7331977
51	0x3fa08c1d	1.2542759
52	0xbfea6018	-1.8310575
53	0x3f9d8386	1.2305763
54	0x3f6dfe73	0.92966384
55	0x3f079771	0.52965456
56	0x3f81d505	1.0143133
57	0xbf455627	-0.77084583
58	0x3fae94dc	1.3639178
59	0xbf0f5d96	-0.56002176
60	0x3f06c358	0.5264182
61	0x3f8e839f	1.1133918
62	0xbf9d3075	-1.2280413
63	0xbf425517	-0.75911087
64	0x3f48cce2	0.78437626
65	0x3e14d324	0.14533669
66	0xbedbf043	-0.42956743
67	0x3f56a77f	0.8384933
68	0x3fbf14af	1.4928187
69	0xbc8638bc	-0.016384475
70	0xbef51841	-0.47870067
71	0x3fefc5f0	1.8732281
72	0x3f83d2bf	1.029869
73	0x3f1b9ba7	0.6078438
74	0x3faef1b6	1.3667514
75	0x3ec94987	0.3931391
76	0x3fbcf376	1.4761798
77	0x3f55668a	0.8335959
78	0xbf0b8611	-0.54501444
79	0x3f8d9df5	1.106383
80	0x3f861dae	1.0477808
81	0x3f1dae51	0.6159411
82	0x3f466c75	0.7750924
83	0x3e9c689c	0.3054856
84	0x3fb9c6a9	1.4513751
85	0xbef4e273	-0.47829017
86	0xbd20482f	-0.03913134
87	0x3ec27101	0.3797684
88	0x3f29f087	0.6638264
89	0x3fae4150	1.3613682
90	0xbf309683	-0.6897966
91	0x3f2d7f9f	0.6777286
92	0x3f83543a	1.0260079
93	0xc009da86	-2.1539626
94	0xbf17230b	-0.59037846
95	0xbf431589	-0.76204735
96	0x3eab294b	0.33429942
97	0x3ef7ffcb	0.48437342
98	0x3f4397a8	0.76403284
99	0xbf517a7e	-0.81827533
100	0x3f05661d	0.5210894
101	0xbfbc81c2	-1.4727099
102	0x3f2e01af	0.6797132
103	0xbc8f7087	-0.017509712
104	0x3fa937a2	1.3220103
105	0xbf562b80	-0.83660126
106	0xbd504678	-0.050848454
107	0xbfce0177	-1.6094197
108	0xbfd0a238	-1.6299505
109	0x3f37ab3c	0.7174566
110	0xbf2797c4	-0.6546595
111	0x3ee7d3a3	0.45278654
112	0x3f3c4cc7	0.7355465
113	0xbf9afa49	-1.2107631
114	0xbe8d2e0a	-0.27574188
115	0x3fb9dd4f	1.4520663
116	0x3ed885d2	0.42289597
117	0x404a8e69	3.164942
118	0xbf9a9637	-1.2077092
119	0x3f8fe48d	1.1241623
120	0xbb16cd55	-0.002301057
121	0xc045035a	-3.0783296
122	0x3ea4d6fa	0.32195264
123	0x3eb03bc8	0.3442061
124	0xbf6d91ab	-0.92800397
125	0xbebe5982	-0.37177664
126	0x3eefadac	0.4681219
127	0xbefec307	-0.4975817
128	0x3fb010ea	1.3755162
129	0xbfa09909	-1.2546703
130	0x3fc0b0ea	1.505399
131	0xbf18b312	-0.5964824
132	0xbf0b13d2	-0.5432712
133	0xbeb6d203	-0.357071
134	0xbf762c06	-0.96160924
135	0xbf7955da	-0.97396624
136	0x3f9d198f	1.2273425
137	0x3e8412af	0.25795504
138	0xc0017768	-2.022913
139	0xbe0132cc	-0.12617034
140	0xbe9c13df	-0.3048391
141	0x3f46bc5c	0.77631164
142	0x3e09d08d	0.13458462
143	0xbf127099	-0.5720306
144	0xbf3390dc	-0.7014291
145	0xbf88b7cd	-1.0681092
146	0x3f880074	1.0625138
147	0x3edcc3f4	0.4311825
148	0xbf731db7	-0.94967216
149	0xbf9ad145	-1.2095114
150	0x3f24c1aa	0.6435801
151	0xbf7df439	-0.9920078
152	0xbe963853	-0.29339847
153	0x3ed03497	0.40665123
154	0xbe3d154c	-0.18465155
155	0xbfbd0c57	-1.4769391
156	0xbed0498a	-0.40681106
157	0xbf47a1fe	-0.77981555
158	0x3ee25d6a	0.44211894
159	0xbea7ee51	-0.32799008
160	0x3e972c3b	0.29525933
161	0xbfb83f6e	-1.4394357
162	0xbf1a1bd0	-0.6019869
163	0x3fc8dc51	1.5692235
164	0x3ef6cff6	0.48205537
165	0xbf00f917	-0.5038008
166	0x3f3ea07e	0.7446364
167	0xbf979b67	-1.18443
168	0x3f94ad74	1.1615434
169	0x3f10079a	0.562616
170	0xbf700227	-0.93753284
171	0x3d80be06	0.06286244
172	0x3e7b155c	0.24519867
173	0xc019946c	-2.399684
174	0xbf5ac6ab	-0.85459393
175	0x3fdf4468	1.7442751
176	0x3eae5e75	0.3405644
177	0xbea3ae84	-0.31969082
178	0x3e8499ab	0.2589849
179	0xbff640e3	-1.9238552
180	0xbfde3b16	-1.7361782
181	0x3f9623d3	1.1729683
182	0x3f459e7f	0.7719497
183	0xbf460eec	-0.7736652
184	0xbffc3aac	-1.9705405
185	0x4021d2aa	2.528483
186	0x3fa2db49	1.272317
187	0xbf9a6a99	-1.2063781
188	0xbf01bd64	-0.5067961
189	0x3f7f0532	0.996173
190	0x3f87a10c	1.0596023
191	0xbf8e59eb	-1.1121191
192	0xbf1e196d	-0.61757547
193	0xbf7e909f	-0.99439424
194	0x3fd7510b	1.6821607
195	0xbe825e6b	-0.2546266
196	0xbd7b9841	-0.061424498
197	0xbe82c880	-0.25543594
198	0x3f0389ce	0.5138215
199	0xbf329177	-0.6975321
200	0xbf3d2439	-0.73883396
201	0x3fe1bc46	1.7635581
202	0x40258947	2.5865037
203	0x3f032cad	0.51240045
204	0x3f1abc90	0.60443974
205	0xbe6bf2e8	-0.2304188
206	0x3f976b01	1.182953
207	0x3fcb0cbf	1.5863265
208	0x3fbf6db4	1.4955354
209	0x3ead999e	0.33906263
210	0x3ef4728d	0.47743645
211	0xbfa5f2ac	-1.2964683
212	0xc00a1daf	-2.1580617
213	0xbea23334	-0.3167969
214	0x3ee5e100	0.44898224
215	0xbee9ba0f	-0.45649764
216	0xbea550ee	-0.32288307
217	0xbf3adff3	-0.7299797
218	0xbddae38d	-0.10687933
219	0x3f8db047	1.106942
220	0x3fb23faf	1.3925685
221	0xbf093615	-0.5359815
222	0x3e2351f6	0.15949234
223	0xbef27180	-0.4735222
224	0xbdb55118	-0.08853358
225	0x3e845477	0.25845692
226	0x3f9848ac	1.1897178
227	0xbfba9812	-1.4577658
228	0xbf84e335	-1.0381838
229	0xbfaa011f	-1.3281592
230	0x3e1c8c3b	0.15287869
231	0xbfb51c6c	-1.4149299
232	0x3f974671	1.1818372
233	0xbeb10c9a	-0.34579927
234	0xbf8f30a9	-1.1186725
235	0x3fb0ed06	1.3822334
236	0xbe718419	-0.23585548
237	0x3f225582	0.63411725
238	0x3e104e55	0.14092381
239	0x3f235cf2	0.638137
240	0xbda7fd9b	-0.08202668
241	0xbe6b17c1	-0.2295828
242	0x3f189dab	0.5961558
243	0xbf384f43	-0.71995944
244	0xbf58d568	-0.8470063
245	0xbe3047c2	-0.17214873
246	0x3ed6934e	0.4190926
247	0xbf92e74e	-1.1476839
248	0xbf20d102	-0.6281892
249	0xbf8af1f0	-1.0855083
250	0xbf4b85fb	-0.7950131
251	0x3cb469fc	0.022023194
252	0xbfa51cf2	-1.2899458
253	0xbf1df7ef	-0.6170644
254	0x3ec10ce7	0.37705156
255	0xbebb6e9c	-0.36607826

embedding_u.weight f4 [14395, 2]
0	0x3f18f7d0	0.5975313
1	0xbf0d5d5f	-0.552206
2	0x3f017503	0.5056917
3	0xbf6c0c7d	-0.92206556
4	0xbd9def16	-0.07711618
5	0xbf7eed0f	-0.9958047
6	0x3f61d470	0.8821478
7	0xbe846fba	-0.2586649
8	0x3d8adedb	0.067807876
9	0x3e75ff61	0.240232
10	0x3d1d2e59	0.03837428
11	0x3e5bedbd	0.21477409
12	0x3f77f013	0.968507
13	0xbfa830ad	-1.3139855
14	0x3f359f50	0.70946217
15	0x3f2c9fb3	0.6743118
16	0x3ff33e2a	1.9003346
17	0x3da61c43	0.08110859
18	0xbfb4b36b	-1.4117254
19	0xbda224f6	-0.07917206
20	0xbf60069c	-0.87510085
21	0xbebe43a3	-0.37160978
22	0x3fb5323b	1.4155954
23	0x3c754f5f	0.014972537
24	0xbf282411	-0.6568003
25	0xbf928868	-1.1447878
26	0x3f5f0cf8	0.87129164
27	0x3f5ee76c	0.8707187
28	0x3ef27cc6	0.4736082
29	0x3f7753a0	0.96611977
30	0xbf287ab6	-0.6581224
31	0x3f7486e6	0.9551834
32	0x3f330a85	0.69937927
33	0x3f67d48b	0.9055869
34	0x3f600dea	0.8752123
35	0x3f9c268a	1.2199261
36	0x3ebc6fd3	0.36804065
37	0x3f019140	0.5061226
38	0x3fae1b08	1.3601999
39	0x3cfe66c2	0.031054858
40	0xbd3bfc2c	-0.045894787
41	0xbf7af95d	-0.9803675
42	0xbe27dd24	-0.16392952
43	0xbee05e9c	-0.4382218
44	0xbdb99f93	-0.090636395
45	0x3fa35fd2	1.2763617
46	0xbf4d02d4	-0.8008244
47	0xbf1ef44a	-0.62091506
48	0x3e296218	0.16541326
49	0x3f1541a7	0.583033
50	0x3f5cf4c9	0.8631101
51	0xbe8499e0	-0.25898647
52	0x3f9664e6	1.1749542
53	0x3f34ec0e	0.7067269
54	0xbe9dbba5	-0.30807224
55	0x3efe32a0	0.49648
56	0xbfb6f63c	-1.4293895
57	0x40159576	2.3372474
58	0x3fc77441	1.5582353
59	0x3f81d716	1.0143764
60	0xbfdf7c1f	-1.7459754
61	0x3da3f463	0.080055974
62	0xbf01f74c	-0.5076797
63	0xbfc062d1	-1.5030156
64	0x3f3ed542	0.74544156
65	0x3f0a4a43	0.54019564
66	0x3e1cb45e	0.1530318
67	0x3fb6a087	1.4267739
68	0x3eeae324	0.4587642
69	0x3e92af16	0.28649205
70	0x3d8a7a80	0.06761646
71	0x3f507bf0	0.81439114
72	0x3fa4ef03	1.288544
73	0x3ea43784	0.32073605
74	0x3ef6f210	0.48231554
75	0xbf9970f0	-1.1987591
76	0xbf8b097b	-1.0862268
77	0xbfbcb80b	-1.4743665
78	0x3fa845f9	1.3146354
79	0xbf34f9d7	-0.70693725
80	0xbed71040	-0.42004585
81	0xbf8df41c	-1.1090121
82	0xbf9eaffd	-1.2397457
83	0x3f770c4a	0.96503127
84	0x3f4dee57	0.804418
85	0xbf5d0209	-0.8633123
86	0xbea848d3	-0.3286806
87	0xbf1e4bcb	-0.618344
88	0x3f66e8a3	0.90198725
89	0x3f9c6f48	1.222146
90	0xbf75e37b	-0.9605023
91	0xbf944ef4	-1.1586595
92	0xbf264040	-0.6494179
93	0xbe380fe6	-0.17974815
94	0xbfd258c4	-1.6433339
95	0xbf626ab0	-0.8844404
96	0x3dadd7ea	0.08488448
97	0x3dc44fd8	0.095855415
98	0x3e854099	0.26025847
99	0xbfcd84b9	-1.6056129
100	0xc00abaaf	-2.1676443
101	0xbe22f443	-0.15913491
102	0xbefcb69a	-0.49358064
103	0xbaf7c482	-0.0018903168
104	0xbf82767b	-1.0192407
105	0x3f6ae92a	0.9176203
106	0xbedaa74b	-0.4270576
107	0xbece7d9e	-0.40330213
108	0x3fb780ee	1.4336221
109	0xbf1e85a3	-0.61922663
110	0xbe051c64	-0.12999111
111	0x3f040df9	0.5158382
112	0x400f70c7	2.2412584
113	0x3f7c77d6	0.98620355
114	0x3e7224f9	0.23646916
115	0xbf960479	-1.1720115
116	0xbf60e294	-0.8784573
117	0x3f1fac0b	0.6237189
118	0x3db6a640	0.089184284
119	0x3f6798d0	0.9046755
120	0xbfb6037f	-1.4219817
121	0xbb8fdb95	-0.00439019
122	0xbf83c573	-1.0294632
123	0xbf978807	-1.1838387
124	0x3e6798c4	0.22616869
125	0x3efbfb22	0.49215037
126	0xbf9a7c5c	-1.2069201
127	0xbf2f0888	-0.6837239
128	0xbf6b2c7d	-0.9186476
129	0x3f457061	0.771246
130	0x3e589400	0.21150208
131	0x3f4685e2	0.7754804
132	0x3ef1ab44	0.47200978
133	0xbec361d3	-0.3816057
134	0x3fd7f089	1.687028
135	0x3f8ef326	1.1167953
136	0x3d5ae0f9	0.053437207
137	0xbff40afe	-1.9065855
138	0x3ebc6e0a	0.36802703
139	0x3ecd42d5	0.4009005
140	0xbea0e756	-0.31426495
141	0x3f1ab196	0.60427225
142	0xbf81ea66	-1.0149658
143	0x3f748a8a	0.95523894
144	0x3f234b90	0.63787174
145	0x40139a43	2.3062904
146	0xbddd8f7d	-0.10818384
147	0xbe775aec	-0.24155778
148	0xbf3c2ed8	-0.7350898
149	0x3f15ce5c	0.58518004
150	0x3e5856a3	0.211268
151	0x3e7b9e66	0.24572143
152	0xbea468b5	-0.32111135
153	0xbf4b158b	-0.79329747
154	0x3e05defa	0.1307334
155	0xbfbc41cb	-1.4707578
156	0x3e8e9652	0.2784906
157	0xc006c67b	-2.1058643
158	0x3fa24186	1.2676246
159	0x3ea0582c	0.3131727
160	0xbf6a7cde	-0.9159678
161	0x3bb40efa	0.0054949494
162	0x3f4f8877	0.81067604
163	0x3e3afd8f	0.18260787
164	0xbd89e179	-0.067324586
165	0xbfe652a1	-1.7993966
166	0xbefcba2f	-0.49360797
167	0x3e09d031	0.13458325
168	0xbf1332c2	-0.57499325
169	0xc0129741	-2.2904818
170	0xbf2cb2b1	-0.6746016
171	0xbfdc6f7d	-1.7221524
172	0xbf53cc41	-0.8273354
173	0x3eb92ff8	0.3616941
174	0xbf0980d1	-0.53712183
175	0x3f24ae2e	0.6432828
176	0xbdccadb8	-0.09994072
177	0x3ec3e8d6	0.38263577
178	0xbfa4164f	-1.2819308
179	0x3f0c7f88	0.548821
180	0xbf78a73c	-0.9713018
181	0x3f25fbed	0.64837533
182	0xbea49caa	-0.32150775
183	0xbe25262e	-0.16127846
184	0xbfad9e04	-1.3563848
185	0x3e2b4c76	0.16728386
186	0xbe0f40a4	-0.13989502
187	0xbf2ca22d	-0.6743496
188	0x3fbda8c3	1.4817127
189	0x3ed5c11e	0.417489
190	0x3fbd3ea0	1.4784737
191	0x3e21eb05	0.15812309
192	0x3e45de13	0.19322996
193	0xbed71028	-0.42004514
194	0x3bd663fc	0.006542681
195	0x3fcf25d6	1.6183422
196	0x3f2bd701	0.67124945
197	0xbf8d00b7	-1.1015843
198	0x3f3e7bd2	0.74407685
199	0x3fb24013	1.3925804
200	0x3eb5260d	0.35380593
201	0xbf5083b7	-0.8145098
202	0x3f683a2e	0.90713775
203	0xbfeecdd8	-1.8656569
204	0xbf5dd8a3	-0.86658686
205	0xbe86a8de	-0.2630071
206	0xbfc81b49	-1.5633327
207	0xbea584e4	-0.3232795
208	0x3ed98b3f	0.4248905
209	0xbf1064c3	-0.5640375
210	0xbd9199bb	-0.071094
211	0x3f2e30d2	0.68043244
212	0xbe0951c0	-0.13410091
213	0x3f861c82	1.047745
214	0xbfe1caf1	-1.7640058
215	0x3efc9222	0.4933024
216	0xbea96d64	-0.3309127
217	0xbf84f2c6	-1.0386589
218	0x3f364598	0.7119994
219	0xbf924ac0	-1.1429062
220	0x3f142ac7	0.57877773
221	0xbb515fba	-0.0031947927
222	0x3e90daaa	0.28291827
223	0x3f5bc981	0.85854346
224	0xbf018c11	-0.5060435
225	0x3e84518a	0.2584346
226	0x3dcda8c1	0.10041953
227	0xbf4c10d8	-0.797132
228	0x3f89ec40	1.0775223
229	0xbed13ba6	-0.4086582
230	0x3e027e34	0.12743455
231	0xbfa16817	-1.2609891
232	0xbf05ac26	-0.522158
233	0x3f7f614b	0.9975783
234	0x3e7ac1a5	0.24487932
235	0x3fb938d0	1.4470463
236	0xbe994f32	-0.29943234
237	0x3f7e2c23	0.992861
238	0x3ecfb5a9	0.40568283
239	0x3fa570b1	1.2925016
240	0xbf3c6db0	-0.7360487
241	0x3e334c04	0.17509466
242	0xbf69b08a	-0.91285
243	0x3fe0a2d4	1.7549691
244	0xbf717236	-0.943149
245	0xbeb632dd	-0.3558568
246	0x3f25a537	0.6470522
247	0x3f13b6d5	0.57700855
248	0xbf847249	-1.0347377
249	0xbedbc04b	-0.42920145
250	0xbf5b42d1	-0.8564883
251	0x3ea2a563	0.31766805
252	0xbe801373	-0.2501484
253	0xbe12af07	-0.1432458
254	0x3f23c5c5	0.6397365
255	0x3faaa9b0	1.3333035
